model_pth/best.pth (torch, 525199 bytes, 9 tensors)

weight f4 [1902, 64]
-0.026246535 0.055175394 0.03607026 0.03395801 0.05740038 -0.009108351 -0.005306153 0.0479842
-0.04913375 -0.044302966 -0.00069376396 -0.031614516 -0.035147075 -0.025674488 -0.015818112 -0.046688117
0.049904503 -0.0032393571 -0.039481286 0.004243821 -0.007744604 0.012216971 -0.010093593 -0.035366815
0.013433595 0.06853366 0.0241102 0.036400963 -0.0094544105 -0.051201116 -0.0008397157 0.01174534
-0.061395023 -0.004790067 0.013149593 0.00012898538 -0.034944564 -0.0037727617 0.06452832 0.08737305
-0.0024781795 0.0012786996 0.004690197 0.0010440648 0.008905461 -0.015484187 -0.062349766 -0.046212338
-0.023994708 -0.0061293663 -0.047963753 0.031241348 -0.031658735 -0.0011896222 -0.009907853 -0.023598019
-0.057441283 -0.063499264 -0.05181062 -0.0058869068 5.932292e-05 0.046518598 -0.051254112 -0.04060106
0.0033465861 0.054072563 -0.030741677 -0.0022456693 -0.06081653 0.013735062 0.022398638 0.0015654513
-0.032048598 -0.010406615 0.018497217 -0.038909584 -0.001109691 0.0434132 -0.018786479 0.047334027
-0.009438476 -0.010787218 -0.0112531595 -0.024880579 0.099196285 -0.030786978 0.03127322 -0.024996405
-0.011924906 -0.0056111375 0.014710931 -0.043688845 0.009558945 -0.0027550631 0.045755647 -0.06960755
0.009560964 0.017860517 -0.02164975 0.0012894906 0.0020646546 -0.061345708 0.05260837 0.050554175
0.030553026 0.04625115 -0.030560996 -0.0140118925 0.0038041894 0.07899782 -0.0341488 0.024832835
-0.04812699 0.016255649 -0.044578463 0.025325002 -0.0060024336 -0.017063184 -0.04791691 0.0029585748
0.004011168 0.0060241763 0.016960207 -0.013972208 -0.0063075265 0.070281975 0.013205145 -0.021905987
0.0034501697 -0.0027263798 -0.023324719 0.05992018 0.068904825 -0.010959818 -0.031716634 0.039433695
-0.003979386 0.03140813 0.096805334 0.05201002 -0.0052766777 0.06558618 -0.020282678 -0.008360745
0.028890526 0.002023383 -0.010563408 -0.0046041915 -0.020861557 -0.016599407 0.01476906 -0.0011139376
0.0059460946 0.0057223877 0.030136619 0.074688695 0.0074250014 0.006101778 -0.05608857 0.030723017
-0.015579629 -0.01420516 0.025823131 -0.008987186 -0.0046142032 -0.019907469 -0.041295618 0.0015104978
-0.00056473335 -0.00068729447 -0.02391059 0.009149911 -0.0003846365 0.019059176 0.00038735656 0.029256914
0.0076362332 0.020893766 -0.0011198946 -0.042192306 0.0034574633 0.009519916 0.032247957 -0.011676298
-0.008582059 0.008773751 0.01153961 0.039081503 0.010543456 -0.011863927 -0.031181596 0.043781247
-0.01488943 0.045795646 -0.026040925 -0.026790857 0.053512294 -0.0028357108 0.05938197 -0.026949516
-0.0037832102 0.036606897 -0.022242356 -0.03301701 -0.002940269 -0.007828744 -0.0013373846 0.012723182
0.0051618167 0.026398716 0.00510263 -0.022223856 0.03452366 0.0013495544 0.065452754 -0.02021749
-0.012965653 0.0058716135 0.0019695945 0.025353055 0.0036635862 0.017353717 0.05623686 -0.026322374
0.009358315 0.019574672 0.00065113255 0.0060060266 -0.020032527 -0.00975782 0.02838956 0.067501046
0.005607616 0.030006355 -0.061372053 -0.01487784 0.010911361 -0.010332983 -0.01486501 0.07836958
-0.029592969 -0.043673784 0.009189127 0.012551719 0.012420256 -0.0038001803 -0.04691342 -0.003931226
-0.008189417 0.013358916 -0.01916751 -0.050846193 -0.009485155 0.044779867 0.011554119 0.026372671
00000000: f902 d7bc 98ff 613d 69be 133d 8e17 0b3d
00000010: a91c 6b3d 313b 15bc 3ddf adbb 158b 443d
00000020: 7940 49bd 0777 35bd b6dd 35ba 397e 01bd
00000030: 61f6 0fbd 4e53 d2bc fc94 81bc 0a3c 3fbd
00000040: aa68 4c3d 654b 54bb 21b7 21bd c00f 8b3b
00000050: 72c6 fdbb b129 483c 995f 25bc cbdc 10bd
00000060: 9518 5c3c 605b 8c3d c182 c53c 2d19 153d
00000070: ace6 1abc 43b8 51bd 5e20 5cba 876f 403c
00000080: 5979 7bbd fff5 9cbb 6471 573c 4040 0739
00000090: 0822 0fbd 7040 77bb 6d27 843d a4f0 b23d
000000a0: f468 22bb 0a9a a73a 39b0 993b 00d9 883a
000000b0: 36e8 113c 63b1 7dbc 7862 7fbd 2649 3dbd
000000c0: 8d90 c4bc dad8 c8bb a475 44bd dbed ff3c
000000d0: 97ac 01bd 19ed 9bba 8c54 22bc a250 c1bc
000000e0: 8d47 6bbd e70b 82bd 5f37 54bd f4e6 c0bb
000000f0: 80d1 7838 498a 3e3d d5ef 51bd 4c4d 26bd
00000100: 6652 5b3b 317b 5d3d f8d5 fbbc 142c 13bb
00000110: c11a 79bd 0709 613c 597d b73c d42f cd3a
00000120: 6445 03bd 8280 2abc 7a87 973c a85f 1fbd
00000130: 0d73 91ba 0ad2 313d 1ae6 99bc 53e1 413d
00000140: d6a3 1abc dfbc 30bc 2c5f 38bc 5bd2 cbbc
00000150: 6c27 cb3d f934 fcbc 5918 003d 43c5 ccbc
00000160: ae60 43bc a2dd b7bb 1e06 713c 13f3 32bd
00000170: 1f9d 1c3c 4a8e 34bb 466a 3b3d 678e 8ebd
00000180: 97a5 1c3c 3850 923c d15a b1bc 2004 a93a
00000190: 284f 073b a345 7bbd e07b 573d e511 4f3d
000001a0: 574a fa3c d971 3d3d 0e5b fabc 2392 65bc
000001b0: b54f 793b 9cc9 a13d 9ddf 0bbd 3b6e cb3c
000001c0: cf20 45bd 912a 853c e897 36bd 6176 cf3c
000001d0: 10b0 c4bb 17c8 8bbc 8644 44bd a6e4 413b
000001e0: 1e70 833b 7466 c53b 22f0 8a3c b0eb 64bc
000001f0: 5eaf cebb ffef 8f3d 645a 583c 2f74 b3bc
00000200: 3e1c 623b 10ad 32bb 7b13 bfbc dd6e 753d
00000210: f91d 8d3d cf90 33bc 4de9 01bd 3a85 213d
00000220: 8265 82bb d0a5 003d e041 c63d 7508 553d
00000230: fbe7 acbb 0c52 863d dc27 a6bc 82fb 08bc
00000240: d3ab ec3c bc9a 043b 2512 2dbc c2de 96bb
00000250: dbe5 aabc 7bfb 87bc edf9 713c 8b01 92ba
00000260: 75d7 c23b de82 bb3b 12e1 f63c 63f6 983d
00000270: 6d4d f33b 6cf1 c73b 21bd 65bd d6ae fb3c
00000280: b341 7fbc c2bc 68bc 088b d33c fd3e 13bc
00000290: be32 97bb fd14 a3bc 9825 29bd e5fb c53a
000002a0: 9d0a 14ba 8d2b 34ba 24e0 c3bc 82e9 153c
000002b0: 0aa9 c9b9 fd21 9c3c 1e16 cb39 32ac ef3c
000002c0: 5e39 fa3b 6729 ab3c 6dc9 92ba d7d1 2cbd
000002d0: 9c96 623b 6cf9 1b3c 6f16 043d f24d 3fbc
000002e0: c49b 0cbc c7bf 0f3c a210 3d3c ed13 203d
000002f0: 76be 2c3c eb60 42bc 8c70 ffbc f753 333d
00000300: ccf2 73bc 3794 3b3d c753 d5bc 8078 dbbc
00000310: b52f 5b3d 55d7 39bb 823a 733d 3bc5 dcbc
00000320: bcef 77bb 1df1 153d 9a35 b6bc d83c 07bd
00000330: 87b1 40bb 2244 00bc 2e4b afba e574 503c
00000340: 7524 a93b 1f42 d83c f633 a73b ce0e b6bc
00000350: ae68 0d3d 88e3 b03a 180c 863d 269f a5bc
00000360: e46d 54bc aa66 c03b 5014 013b 36b1 cf3c
00000370: c718 703b 6229 8e3c 9f58 663d 05a2 d7bc
00000380: 9e53 193c 105b a03c c4b0 2a3a 34ce c43b
00000390: 411b a4bc 43df 1fbc 3991 e83c fd3d 8a3d
000003a0: 18c0 b73b e3cf f53c 4361 7bbd 2fc2 73bc
000003b0: 91c5 323c ac4b 29bc 5f8c 73bc 3b80 a03d
000003c0: f46c f2bc 48e3 32bd fe8d 163c baa5 4d3c
000003d0: 547e 4b3c 720c 79bb 4928 40bd 84d1 80bb
000003e0: e82c 06bc 5bdf 5a3c 2f05 9dbc 1944 50bd
000003f0: a067 1bbc 186b 373d 7d4d 3d3c 800b d83c

bias f4 [64]
0.0 0.0 0.0 0.0 0.0 0.0 0.0 0.0
0.0 0.0 0.0 0.0 0.0 0.0 0.0 0.0
0.0 0.0 0.0 0.0 0.0 0.0 0.0 0.0
0.0 0.0 0.0 0.0 0.0 0.0 0.0 0.0
0.0 0.0 0.0 0.0 0.0 0.0 0.0 0.0
0.0 0.0 0.0 0.0 0.0 0.0 0.0 0.0
0.0 0.0 0.0 0.0 0.0 0.0 0.0 0.0
0.0 0.0 0.0 0.0 0.0 0.0 0.0 0.0
00000000: 0000 0000 0000 0000 0000 0000 0000 0000
00000010: 0000 0000 0000 0000 0000 0000 0000 0000
00000020: 0000 0000 0000 0000 0000 0000 0000 0000
00000030: 0000 0000 0000 0000 0000 0000 0000 0000
00000040: 0000 0000 0000 0000 0000 0000 0000 0000
00000050: 0000 0000 0000 0000 0000 0000 0000 0000
00000060: 0000 0000 0000 0000 0000 0000 0000 0000
00000070: 0000 0000 0000 0000 0000 0000 0000 0000
00000080: 0000 0000 0000 0000 0000 0000 0000 0000
00000090: 0000 0000 0000 0000 0000 0000 0000 0000
000000a0: 0000 0000 0000 0000 0000 0000 0000 0000
000000b0: 0000 0000 0000 0000 0000 0000 0000 0000
000000c0: 0000 0000 0000 0000 0000 0000 0000 0000
000000d0: 0000 0000 0000 0000 0000 0000 0000 0000
000000e0: 0000 0000 0000 0000 0000 0000 0000 0000
000000f0: 0000 0000 0000 0000 0000 0000 0000 0000

layers.0.conv1.weight f4 [2, 5, 1, 1]
-0.54213923 1.6812023 -0.07675043 -0.111562066 -0.60451025 0.037450917 1.7809923 -0.35271963
-1.0928386 -0.12997876
00000000: a3c9 0abf a331 d73f 542f 9dbd a77a e4bd
00000010: 2fc1 1abf 2266 193d 8ef7 e33f ab97 b4be
00000020: 23e2 8bbf 2719 05be

layers.0.conv2.weight f4 [2, 5, 1, 1]
0.44161892 -0.053261876 -0.14780977 0.1178412 -0.3275481 -0.16484576 -0.057432786 -0.11545351
-0.13701029 0.2995138
00000000: e01b e23e 2029 5abd 725b 17be ba56 f13d
00000010: 62b4 a7be 54cd 28be a43e 6bbd e472 ecbd
00000020: 6d4c 0cbe df59 993e

layers.1.conv1.weight f4 [2, 5, 1, 1]
-0.79152566 1.425332 -0.79152566 -0.2680937 -1.5095794 -0.50962925 0.925341 -0.50962925
0.26689112 -1.3867897
00000000: 6da1 4abf 4771 b63f 6da1 4abf 9443 89be
00000010: e639 c1bf 1077 02bf 26e3 6c3f 1077 02bf
00000020: f4a5 883e 5382 b1bf

linear1.weight f4 [64, 128]
-0.0011048322 -0.06369116 -0.0037804565 0.07262066 -0.039994504 -0.004379502 -0.068028174 -0.08658382
-0.012401545 0.030248368 -0.0148248235 -0.03624634 -0.0013249174 -0.04849622 0.013190175 -0.013810118
-0.09587002 0.022168212 -0.021381862 0.043106087 -0.019980414 0.02486289 -0.028145678 0.003019537
-0.0045882193 -0.0528734 0.044075355 0.021998491 0.004396585 -0.0073718214 0.10515379 -0.012415767
0.08197509 -0.011376275 0.006912113 -0.0048269415 0.008013622 0.023392545 -0.08303273 0.009478767
-0.010957905 -0.08186188 0.028746592 -4.8040936e-05 0.005131299 0.03584659 0.06327582 0.029547168
0.07454888 0.06650633 -0.02045747 0.03546858 -0.015065918 0.075963244 -0.10729689 -0.008638212
-0.0040780865 0.01557255 0.018322784 0.06467605 0.005708944 0.030221686 -0.013761477 -0.06768323
-0.009193917 0.010508503 -0.00896017 0.05217474 0.10751944 -0.0034686052 0.0645649 0.02341042
0.031805553 -0.028671764 0.040810093 -0.027404564 0.0062738075 0.046880197 0.010307656 -0.00406756
0.0012746999 0.031847056 0.02701428 -0.005858108 0.08343508 -0.003490716 -0.0026013018 0.01291639
0.0033552595 -0.05279178 0.012201269 0.08448373 0.007021493 0.058406606 0.092018336 -0.00021879887
0.06679225 0.00475194 0.010980536 0.010425545 -0.0050898837 0.057896607 -0.04277721 0.028824994
0.009846771 -0.057418074 -0.03510483 0.010960203 -0.008558785 0.057324525 0.043344676 -0.002039094
-0.005003539 0.063395135 -0.015152391 0.029849328 0.049400292 -0.023734156 -0.04918368 -0.009705996
0.0041234475 0.009935611 -0.008230452 -0.020353317 -0.0050061573 0.014846636 0.016650526 0.03496842
-0.0009971077 0.019472687 -0.09250738 0.069457695 -0.06784481 -0.009919426 0.0029566926 0.0136188185
0.0133558 0.038137317 0.07544641 0.034928586 -0.004443011 0.051880445 0.0038255989 0.0032684295
-0.024584709 0.025420208 0.011605595 -0.0105736535 -0.057032663 0.012376862 0.0739177 -0.01346835
0.012732531 0.073075235 -0.027822807 0.0026218074 -0.008337897 -0.0025292404 -0.07575715 0.016886901
-0.0140273385 0.001901998 0.007951314 0.00089163415 0.011903278 0.03138111 0.027474593 0.07991486
0.0034303358 0.052749425 0.0013357456 -0.008189888 0.008444542 0.0018115942 -0.011382324 -0.07709403
0.038112357 -0.0016065656 -0.015923059 0.033306614 -0.009037542 -0.020735828 0.06648916 0.005488394
-0.009945381 -0.015897008 -0.011051665 0.030282814 0.0013949157 0.043334693 -0.07371428 0.07723706
0.010275312 0.06296133 -0.043996733 0.009391041 0.039818194 -0.013833643 0.0043261754 0.06340477
-0.0010911259 -0.05467994 -0.036332805 0.057443224 0.008040318 0.031908453 -0.006598318 -0.00790812
0.089050725 -0.06263375 -0.006280347 0.00380361 -0.055791613 0.013287403 0.007646032 0.0005822411
0.013045792 0.03716425 0.05973449 0.024582446 0.012121362 0.009364564 -0.02202855 0.009921994
-0.010534937 -0.013145273 2.4273642e-05 -0.0045034 -0.0074528493 -0.06411741 0.01267009 0.046647143
-0.0006980598 0.026333803 0.0007915797 0.007289067 0.0010133376 -0.023753302 -0.003133657 -0.04498525
0.039902598 0.045716554 0.052130587 0.011691885 -0.005499507 0.090491526 0.12382075 0.012588614
-0.0026837029 -0.06332227 -0.104970954 0.0012915914 -9.170384e-06 0.07090372 -0.047335148 -0.05083486
00000000: 04d0 90ba 8370 82bd 89c1 77bb 24ba 943d
00000010: 47d1 23bd ed81 8fbb 5b52 8bbd dc52 b1bd
00000020: da2f 4bbc 6dcb f73c d1e3 72bc 0b77 14bd
00000030: daa8 adba f9a3 46bd 9b1b 583c d543 62bc
00000040: 8057 c4bd 1c9a b53c 0429 afbc 0290 303d
00000050: f7ad a3bc 42ad cb3c c491 e6bc 6de3 453b
00000060: c658 96bb c791 58bd 5c88 343d 2e36 b43c
00000070: 3a11 903b 528f f1bb df5a d73d 806b 4bbc
00000080: 8ee2 a73d 8e63 3abc 027f e23b 522b 9ebb
00000090: 914b 033c b9a1 bf3c 100d aabd d54c 1b3c
000000a0: c988 33bc 34a7 a7bd f97d eb3c 907f 49b8
000000b0: 7524 a83b e0d3 123d c196 813d e70c f23c
000000c0: 15ad 983d 7934 883d 6d96 a7bc 8047 113d
000000d0: 0ad7 76bc 9e92 9b3d 79be dbbd 4a87 0dbc
000000e0: 78a1 85bb 0224 7f3c aa19 963c e074 843d
000000f0: 1812 bb3b 7893 f73c d177 61bc 819d 8abd
00000100: 15a2 16bc db2b 2c3c adcd 12bc 2eb5 553d
00000110: 2733 dc3d 8a51 63bb 9a3a 843d 36c7 bf3c
00000120: 8a46 023d 0ce1 eabc 7c28 273d 897f e0bc
00000130: 8394 cd3b 7305 403d 71e1 283c 2b49 85bb
00000140: d513 a73a 0f72 023d 0d4d dd3c 5ff5 bfbb
00000150: 03e0 aa3d 7fc4 64bb 9a7a 2abb 449f 533c
00000160: eae3 5b3b 323c 58bd d5e7 473c ce05 ad3d
00000170: 8d14 e63b c43b 6f3d 1c74 bc3d 606d 65b9
00000180: 60ca 883d 29b6 9b3b b5e7 333c e8cf 2a3c
00000190: 0ac9 a6bb fe24 6d3d 2837 2fbd 6522 ec3c
000001a0: 5a54 213c 372f 6bbd 15ca 0fbd 6c92 333c
000001b0: 253a 0cbc 1fcd 6a3d 308a 313d 52a2 05bb
000001c0: baf4 a3bb 4fd5 813d bc41 78bc 9486 f43c
000001d0: f657 4a3d 226e c2bc d474 49bd e605 1fbc
000001e0: fc1d 873b f9c8 223c 05d9 06bc 00bc a6bc
000001f0: b10a a4bb 4e3f 733c af66 883c 0c3b 0f3d
00000200: 62b1 82ba 2f85 9f3c 8274 bdbd d63f 8e3d
00000210: 38f2 8abd 1785 22bc 12c5 413b 7721 5f3c
00000220: 49d2 5a3c e035 1c3d a683 9a3d 4711 0f3d
00000230: ad96 91bb 9780 543d e6b6 7a3b 2633 563b
00000240: df65 c9bc 0a3e d03c 6525 3e3c 1e3d 2dbc
00000250: 159b 69bd 52c8 4a3c 2a62 973d 5baa 5cbc
00000260: 1b9c 503c 78a8 953d a8ec e3bc a1d2 2b3b
00000270: ad9b 08bc 9dc1 25bb 9126 9bbd 6656 8a3c
00000280: ecd2 65bc 764c f93a 3a46 023c 8ebc 693a
00000290: f705 433c 7b89 003d 6612 e13c 67aa a33d
000002a0: 7ccf 603b c80f 583d 2f14 af3a e12e 06bc
000002b0: fa5a 0a3c 0473 ed3a ed7c 3abc 7ae3 9dbd
000002c0: b41b 1c3d 6593 d2ba 1371 82bc 846c 083d
000002d0: 3312 14bc 2fde a9bc 782b 883d fcd7 b33b
000002e0: f4f1 22bc 713a 82bc 0b12 35bc aa13 f83c
000002f0: 9bd5 b63a b87f 313d 83f7 96bd 772e 9e3d
00000300: c859 283c dff1 803d eb35 34bd e1dc 193c
00000310: 6718 233d 81a6 62bc 97c2 8d3b 5cda 813d
00000320: 1c04 8fba 13f8 5fbd b5d1 14bd 9649 6b3d
00000330: 8abb 033c 70b2 023d b436 d8bb 0f91 01bc
00000340: 3a60 b63d 2046 80bd 5ecb cdbb fd45 793b
00000350: bf85 64bd 68b3 593c 918b fa3b 8aa1 183a
00000360: 04be 553c 8a39 183d 27ac 743d 2061 c93c
00000370: ad98 463c d46d 193c 3875 b4bc dc8f 223c
00000380: ba9a 2cbc 455f 57bc 409f cb37 4291 93bb
00000390: 0837 f4bb fd4f 83bd 3696 4f3c 1311 3f3d
000003a0: 00fe 36ba fdb9 d73c 0482 4f3a 20d9 ee3b
000003b0: f8d1 843a 4996 c2bc 0a5e 4dbb 7442 38bd
000003c0: e870 233d 4841 3b3d e286 553d 528f 3f3c
000003d0: 3535 b4bb 9f53 b93d bc95 fd3d 7940 4e3c
000003e0: 10e1 2fbb 1baf 81bd 03fb d6bd 9e4a a93a
000003f0: 80da 19b7 f835 913d 80e2 41bd 3738 50bd

linear1.bias f4 [64]
-0.08047735 -0.0024025398 0.047164626 -0.049545374 0.036626257 0.013877753 -0.03711397 -0.03432365
0.016394112 0.095561385 0.11130437 -0.030668726 0.083001934 -0.10672506 0.0301881 -0.02487808
0.030983213 0.03019149 0.028938146 -0.05352378 0.050405737 -0.022378257 -0.022992458 0.01731824
-0.0154471 0.020134784 0.00037276655 -0.052733973 -0.04743428 -0.04590363 0.0861054 -0.0109346025
0.092019014 0.09460357 -0.031332005 -0.020367404 -0.05664776 0.092098586 -0.028045662 0.077858314
-0.072287016 0.076351285 0.10271494 -0.04174514 0.09803375 -0.031826757 0.0737446 0.072734214
0.07557829 -0.053107865 0.016467107 -0.03791794 -0.08869964 -0.0035435788 -0.016693745 -0.005676358
0.0007599738 -0.07162402 0.0009636806 0.0030479848 -0.08216979 -0.09002386 0.009751931 -0.010083669
00000000: 4fd1 a4bd ee73 1dbb b22f 413d 17f0 4abd
00000010: 6a05 163d 845f 633c d104 18bd f596 0cbd
00000020: f24c 863c b0b5 c33d 8cf3 e33d fb3c fbbc
00000030: ebfc a93d ab92 dabd 094d f73c 1dcd cbbc
00000040: 82d0 fd3c 2554 f73c b10f ed3c c03b 5bbd
00000050: 3f76 4e3d 9b52 b7bc ae5a bcbc fbde 8d3c
00000060: d515 7dbc b4f1 a43c e16f c339 94ff 57bd
00000070: 734a 42bd 7205 3cbd 0758 b03d 0c27 33bc
00000080: 7774 bc3d 84bf c13d fd55 00bd 8bd9 a6bc
00000090: 7b07 68bd 2f9e bc3d 04c0 e5bc 2e74 9f3d
000000a0: 370b 94bd 105e 9c3d 365c d23d f4fc 2abd
000000b0: ebc5 c83d c65c 02bd 6907 973d adf5 943d
000000c0: cac8 9a3d a287 59bd 07e6 863c d84f 1bbd
000000d0: 28a8 b5bd 633b 68bb 52c1 88bc be00 babb
000000e0: fa38 473a 9daf 92bd 839f 7c3a b3c0 473b
000000f0: a348 a8bd 6e5e b8bd 90c6 1f3c f935 25bc

linear2.weight f4 [3, 64]
-0.0020252282 -0.1709086 -0.020984499 0.0771367 -0.049993135 0.067865506 0.12660973 -0.052955862
-0.17658024 -0.01502823 0.093427226 -0.057635225 0.054637056 -0.023757894 -0.053732596 -0.05818948
0.14643222 -0.068991825 0.0047432533 -0.004703053 0.17555173 0.08019406 0.059149005 0.07966077
0.024515666 -0.05819544 -0.12173817 0.09321792 -0.07261728 0.07959244 0.099449076 -0.038139913
0.038149524 0.08931781 -0.017040411 -0.05108242 -0.05167141 -0.061959736 0.008544724 0.052642725
-0.03720744 0.08543582 -0.03446241 -0.13150524 -0.08070022 0.06692774 -0.06685591 0.04104796
-0.11673282 0.06841685 -0.12339199 -0.087169476 -0.053917244 0.021011349 0.10196483 0.0067989873
-0.0002227145 0.11253919 0.022365911 0.14777194 -0.12016541 -0.05022855 -0.0035776882 0.004287048
-0.12322533 -0.03173537 0.010471578 -0.17075592 0.0024212042 -0.15908255 -0.026733303 0.060694914
0.15901971 -0.100758836 0.111467615 -0.09896521 -0.09743389 0.05816381 -0.12122783 -0.02308067
0.07924928 0.093929775 0.024022589 0.05742513 -0.041228063 -0.124080196 -0.009965735 -0.057130884
0.09825045 0.05853123 0.16151123 0.039818753 -0.14718597 0.051357217 0.06433926 0.016250411
0.13801603 0.14784531 -0.15564688 -0.16404235 0.0861567 0.052879866 -0.0018667906 0.1556486
0.0015407328 -0.08539667 0.061768983 0.027500156 0.11119181 -0.09427731 0.11780826 0.006407153
0.12704983 0.051206253 0.055768974 0.1457869 -0.05466691 0.03899198 0.074084416 0.0031239116
-0.009981766 0.009427859 -0.015882125 -0.17896622 0.11386038 0.033265788 0.09264925 0.028559132
-0.089451976 0.027899241 -0.1196898 0.067830905 -0.1067087 0.106426686 0.019245269 -0.047527384
-0.03150542 0.0894461 -0.111509316 0.13206434 0.035441935 0.016876902 0.07176111 -0.10129601
-0.072445914 0.044701304 0.0013335164 -0.09049892 0.0015842379 -0.09606323 0.059669096 0.096835725
-0.16513099 0.06512049 -0.116832785 -0.028503852 0.0768382 -0.042020448 -0.06707467 -0.008506212
-0.1605068 -0.06829429 0.14373857 0.10510839 0.04509546 -0.12570189 -0.033440452 0.043346047
-0.004745464 -0.10234937 -0.09613259 -0.07200621 0.15615778 0.011255202 0.06712552 -0.09885825
-0.02455881 0.014952355 0.04447157 0.11378433 -0.03759712 0.016105969 -0.13863616 0.0029594982
8.4061525e-05 0.106973104 -0.06551768 0.023079263 -0.05113351 0.06969642 -0.023982186 -0.00023674942
00000000: b1b9 04bb aa02 2fbe afe7 abbc d9f9 9d3d
00000010: 9ac5 4cbd 12fd 8a3d fba5 013e 3fe8 58bd
00000020: 73d1 34be f738 76bc c656 bf3d ea12 6cbd
00000030: 1bcb 5f3d ea9f c2bc b616 5cbd 1858 6ebd
00000040: 54f2 153e 964b 8dbd 4b6d 9b3b 111c 9abb
00000050: d5c3 333e c93c a43d 3a46 723d 3025 a33d
00000060: 14d5 c83c 575e 6ebd dd51 f9bd 09e9 be3d
00000070: 5eb8 94bd 5c01 a33d f5ab cb3d 9938 1cbd
00000080: ad42 1c3d 42ec b63d 5598 8bbc cd3b 51bd
00000090: 67a5 53bd 7ec9 7dbd 2cff 0b3c e69f 573d
000000a0: d466 18bd faf8 ae3d 7528 0dbd 4fa9 06be
000000b0: 2846 a5bd 6911 893d c0eb 88bd e821 283d
000000c0: 9e11 efbd 221e 8c3d f1b4 fcbd e985 b2bd
000000d0: 54d8 5cbd fe1f ac3c f0d2 d03d 0aca de3b
000000e0: 7888 69b9 f27a e63d b738 b73c 8751 173e
000000f0: 4819 f6bd 74bc 4dbd a677 6abb 5d7a 8c3b
00000100: 905d fcbd f3fc 01bd fb90 2b3c a4da 2ebe
00000110: 11ad 1e3b 89e6 22be cdff dabc 3b9b 783d
00000120: 10d6 223e a65a cebd 2249 e43d 46ae cabd
00000130: 6b8b c7bd 2d3d 6e3d 4c46 f8bd ac13 bdbc
00000140: 724d a23d 415e c03d 05cb c43c 9d36 6b3d
00000150: c2de 28bd c21d febd 5247 23bc 1302 6abd
00000160: 8837 c93d 71be 6f3d 3363 253e fd18 233d
00000170: ebb7 16be f25b 523d 4dc4 833d 951f 853c
00000180: 1354 0d3e c364 173e e561 1fbe b8fa 27be
00000190: ed72 b03d 8f98 583d 19af f4ba 5962 1f3e
000001a0: 6af2 c93a 73e4 aebd 7901 7d3d 0248 e13c
000001b0: 88b8 e33d 7614 c1bd 7545 f13d 18f3 d13b
000001c0: 5a19 023e a6bd 513d 026e 643d 2949 153e
000001d0: 69ea 5fbd 0eb6 1f3d 92b9 973d 8aba 4c3b
000001e0: 908a 23bc 4f77 1a3c 3b1b 82bc ec42 37be
000001f0: a22f e93d b541 083d e4be bd3d d7f4 e93c
00000200: 9932 b7bd f38c e43c ed1f f5bd eeea 8a3d
00000210: 178a dabd 3cf6 d93d 41a8 9d3c 13ac 42bd
00000220: d40b 01bd 842f b73d ff5e e4bd e03b 073e
00000230: 902b 113d 6e41 8a3c 7df7 923d 4874 cfbd
00000240: 865e 94bd b718 373d 63c9 ae3a 7f57 b9bd
00000250: 34a6 cf3a ccbc c4bd 9567 743d cf51 c63d
00000260: 1918 29be e45d 853d 0746 efbd e980 e9bc
00000270: 595d 9d3d a21d 2cbd 725e 89bd a45d 0bbc
00000280: e55b 24be e0dd 8bbd 3430 133e 1143 d73d
00000290: 04b6 383d ffb7 00be dbf8 08bd a08b 313d
000002a0: d67f 9bbb 8c9c d1bd 2ae1 c4bd fe77 93bd
000002b0: d3e7 1f3e bd67 383c 1b79 893d 3276 cabd
000002c0: 8f2f c9bc b9fa 743c d227 363d c207 e93d
000002d0: 70ff 19bd aaf0 833c a3f6 0dbe 24f4 413b
000002e0: 304a b038 b714 db3d 222e 86bd b910 bd3c
000002f0: 5f71 51bd ffbc 8e3d 4a76 c4bc f03f 78b9

linear2.bias f4 [3]
-0.08168089 0.06083944 0.09188546
00000000: 4f48 a7bd c732 793d 722e bc3d
